QuadrupedalRobots/ETGRL/data/model/cliff_width0.5_half1_itr_3340102.pt (torch, 976887 bytes, 18 tensors)

actor_model.l1.weight f4 [256, 49]
000000 f3 f6 dd 3e 3c 70 00 be 72 83 f8 be 90 12 da be
       0.4335247 -0.12542814 -0.48537785 -0.42592287
000010 4b fd 7c 3f 99 0a 56 c0 7f 27 09 c0 4a 92 35 bf
       0.98823994 -3.3443968 -2.1430357 -0.70926344
000020 57 28 8b be 06 45 e9 be b0 ec 6e be 71 7c 04 3f
       -0.27179214 -0.45560473 -0.23332477 0.5175238
000030 da 7a 4a 3e db c2 96 3e eb 2b 00 3e dd b6 4b 3e
       0.19773427 0.29445538 0.12516753 0.19893976
000040 47 9c 18 be d0 cc 17 3e 4b 16 29 3e fb 00 87 3f
       -0.14903365 0.14824224 0.1651241 1.0547174
000050 40 da 21 bc a9 30 eb 3c 36 7c a1 3e c5 ef bd be
       -0.009878695 0.028709726 0.31540078 -0.37096992
000060 76 ae 62 be 80 f7 60 be 94 b7 2c bd a5 7b f6 3c
       -0.22136864 -0.21969414 -0.04216726 0.030088255
000070 f7 c7 38 3e ce 05 74 3c 3e 93 ab 3d a8 8f e2 be
       0.1804503 0.014893962 0.083776936 -0.44250226
000080 f6 0c 61 3e 10 b0 99 bc fc c2 1f 3e 42 b4 2c bc
       0.219776 -0.018760711 0.15601724 -0.010541024
000090 d9 44 b0 bd 8f 11 d9 3e 15 43 d4 bb cb 27 2a bf
       -0.08606882 0.4239621 -0.0064777234 -0.6646697
0000a0 0e 3f 00 3e 75 ba 5e 3d f7 b6 39 bf fa bd 50 3f
       0.12524053 0.054377038 -0.7254481 0.8153988
0000b0 90 fb 88 be 2e 0c 4b bf 7e 89 36 3f 2a 6a 8d be
       -0.26754427 -0.7931546 0.71303546 -0.2762006
0000c0 c2 d6 52 bf c3 d9 97 be 82 bd 96 be c9 85 b4 3e
       -0.82358944 -0.29658327 -0.29441458 0.3525832
0000d0 54 5e f4 3e 1f 8d 39 3f 52 ca 09 3c 2d 9d 6b be
       0.47728217 0.7248096 0.008410053 -0.23009177
0000e0 a1 67 e0 3e b2 bf 35 c0 2d ee 8f 3d 56 01 0a 3e
       0.43829063 -2.8398252 0.0702785 0.13477072
0000f0 33 5f c1 3c 5f f0 b8 bd 50 40 03 3e a6 de 6e 3e
       0.023604965 -0.09030222 0.12817502 0.23327121
000100 f6 2b a3 bd 12 c4 61 bf cb f7 53 3e eb 06 19 be
       -0.07967369 -0.88189805 0.20699994 -0.14944045
000110 8e 8c 15 3f 24 1f 32 bf aa e8 bf 3e 7d 91 19 3f
       0.58417594 -0.69578767 0.37482196 0.5998762
000120 b4 d5 e3 be 91 a1 a5 3e 0c 82 b4 bd 55 69 25 be
       -0.4449898 0.32349828 -0.08813867 -0.16153462
000130 0a 92 67 bd fb 41 aa 3e 3e 3c eb 3c 1f 38 0c 3c
       -0.056535758 0.33253464 0.02871525 0.008558302
000140 36 35 b1 be 97 79 da 3d 30 58 35 3c ca 64 7b 3e
       -0.3461091 0.10667723 0.011068389 0.24550167
000150 ed 76 0d 3e d5 f3 94 bd 6c 01 18 3f 49 12 1e 3f
       0.13814898 -0.0727307 0.5937717 0.6174665
000160 bc ed 52 bb fe 4b 11 be 50 b4 14 3f b8 0e d5 bc
       -0.0032185158 -0.14189145 0.58087635 -0.026007995
000170 4c a6 0f 3f f4 57 af 3d 0a 47 cb bd 58 af 12 3f
       0.56113124 0.085616976 -0.09925659 0.57298803
000180 e1 6a ba bd b9 c4 4a bd b7 b4 1a 3e 7b 3c f5 be
       -0.09102417 -0.049504016 0.15108 -0.47897705
000190 7c 51 a9 3d 96 68 96 bf 3f 03 74 3e e6 2f 86 be
       0.08267495 -1.1750667 0.23829363 -0.2620842
0001a0 dc 80 8c bf 28 a1 e4 3f aa 95 52 bb e5 37 45 bf
       -1.0976825 1.7861681 -0.0032132664 -0.77038413
0001b0 5b 04 2e 3d 4a 55 24 3d 01 ef 39 3f 91 b2 63 be
       0.042484622 0.0401204 0.72630316 -0.22236086
0001c0 17 52 c3 bd 86 ac 1b bf fb 6c ee 3d 41 cb 82 3e
       -0.09537142 -0.60810125 0.1164188 0.25545695
0001d0 dc 29 34 be 31 48 61 3e a1 97 92 be 61 cb 96 3e
       -0.17594093 0.22000195 -0.2863131 0.2945204
0001e0 04 ad cc 3f b7 47 f5 bd 68 4c 10 bf 31 b1 aa 3e
       1.59903 -0.11976569 -0.56366587 0.3333831
0001f0 55 e7 04 3d 1c f3 10 bd 1d 97 95 be cc 4d 49 3e
       0.032447178 -0.035388097 -0.29216853 0.19658583
000200 18 08 cc 3d 07 a5 3e bd 08 91 ca 3d 98 a3 bd bd
       0.09962481 -0.0465441 0.09890944 -0.09259719
000210 50 13 d8 bd c7 c8 b8 3e c0 1a a4 bd 73 83 a3 bc
       -0.105505586 0.3609068 -0.08012915 -0.01996014
000220 86 27 f8 be 9b 54 18 bf f4 ee 08 3e 9b ee 07 bf
       -0.48467654 -0.595041 0.13372403 -0.5309846
000230 a1 14 0e bf 79 a6 17 3f 67 fb c5 be 91 23 c8 be
       -0.5550023 0.5923839 -0.38668367 -0.39089635
000240 20 ee 59 bf c6 32 37 bf 27 11 ac be f1 c2 14 bf
       -0.85128975 -0.7156185 -0.33606836 -0.58109957
000250 0b d5 30 bc 4a f6 aa 3e 5f ae 00 be 4b 36 c8 3f
       -0.010792981 0.3339103 -0.12566517 1.5641569
000260 58 e9 52 3f 15 01 87 3f 3c 4c 19 bf e5 66 cd bf
       0.82387304 1.0547205 -0.5988195 -1.6047026
000270 75 ad fc bd 08 11 ea 3c 2f 66 74 3d 61 32 e8 3c
       -0.12337772 0.028572574 0.059667762 0.028344335
000280 f8 a1 08 3f df 14 eb 3d e3 6f b0 3e 63 2f ab bd
       0.53372145 0.1147859 0.34460363 -0.08358648
000290 94 14 24 3c 22 86 ab 3e d4 c4 11 bf 05 51 37 bf
       0.010014672 0.33500773 -0.5694096 -0.71608
0002a0 7a e1 b8 be d6 0b 37 bd e3 a2 69 bd 5a 6c 6f 3e
       -0.36109525 -0.044689022 -0.057040107 0.23381177
0002b0 94 90 48 3e af 31 f8 bd c0 11 60 bc 5a 30 e6 bc
       0.19586402 -0.121188514 -0.013676107 -0.028099228
0002c0 7f 62 ef 3d 8c 5e 1a 3d 32 1e c8 3c 67 75 64 bc
       0.116887085 0.037687823 0.02442846 -0.0139440065
0002d0 7b d4 1e bc 92 2c 88 bd b8 7e 60 3c 30 76 52 3c
       -0.009694214 -0.06649126 0.013702087 0.012845561
0002e0 12 68 1c be 72 e8 8d 3e 26 76 e7 bd 46 78 99 3e
       -0.15274075 0.27716404 -0.11301832 0.29974574
0002f0 a4 d1 9c 3e 22 a5 33 bd 07 8b 1a 3f 74 a5 e4 be
       0.30628693 -0.043858655 0.6036839 -0.4465748
000300 5e 00 cc be 8d 5a 5d bf 6a 52 0a bf c0 9a ad be
       -0.3984403 -0.86466295 -0.54032004 -0.33907127
000310 f3 12 a4 be 3b 02 33 3e 02 73 fa be 4e 80 94 bf
       -0.32045707 0.1748132 -0.4891587 -1.1601655
000320 77 09 9a c0 af 71 0d 3e f1 80 63 3e 8b 87 c7 3c
       -4.8136554 0.13812898 0.22217156 0.024356624
000330 5f 73 02 bf 4b 26 00 3f ee 0f 3d be a0 65 1d ba
       -0.5095729 0.5005843 -0.18463108 -0.0006004218
000340 a7 d5 68 3e b7 87 04 bf 52 2f 1a bf 39 83 c0 3d
       0.22737752 -0.51769584 -0.60228455 0.09400029
000350 da e1 10 3f ca f7 1a 3e 6e e6 d6 3d 31 25 9c bd
       0.5659462 0.15133587 0.1049317 -0.07624281
000360 3f 70 0a 3e 54 26 e3 3e 7d 5b 43 be 62 c8 b5 bc
       0.13519381 0.4436518 -0.19077869 -0.022190277
000370 bf d6 0b 3f 9d 8e 8a bd 80 ff 3e bc f8 80 88 3d
       0.5462455 -0.067654826 -0.011657596 0.06665224
000380 c0 17 10 be d1 21 b1 bc 2c 17 6f 3e e8 0c 38 b9
       -0.1407156 -0.02162257 0.23348683 -0.00017552415
000390 07 6c 8d be db c7 7a bc 0b 48 f2 bd d6 58 e0 bc
       -0.2762148 -0.015306438 -0.11830147 -0.02738611
0003a0 f6 9a e4 3d 9c 25 e3 3e 45 5e 8d bf 7d 3b 1c bd
       0.11162369 0.4436463 -1.1044394 -0.03814267
0003b0 d1 6e b2 bf cc c1 81 bf c7 01 6f be b2 08 b3 3e
       -1.3940068 -1.0137267 -0.23340522 0.34967571
0003c0 01 12 05 3c e9 6f b4 3e 79 1e 2c c0 8c 2f 74 3e
       0.008121968 0.3524163 -2.68936 0.23846263
0003d0 33 60 98 3e 88 9d 47 3e f2 aa 97 3d 06 8b 48 bf
       0.29760894 0.19493687 0.07405652 -0.7833713
0003e0 68 56 91 be aa 6f 14 bf e1 93 52 bf fd 4a 91 bf
       -0.28386235 -0.57982886 -0.82256895 -1.135101
0003f0 37 62 9f 3e ae be a4 3e e3 12 5f 3c 5a 63 80 3d
       0.3112962 0.32176727 0.013615343 0.0626895

actor_model.l1.bias f4 [256]
000000 2c 68 19 c0 f3 72 bb bf a1 a3 8f be 3d fa ad be
       -2.3969831 -1.4644455 -0.28054526 -0.3397998
000010 5c 9e 0b 3f 89 a2 f0 be 51 38 82 3b 02 d0 eb bf
       0.5453851 -0.46999004 0.0039739986 -1.8422854
000020 e1 47 0f bf f8 52 01 c0 76 0d 8f bf 34 9a 2e 3e
       -0.55969054 -2.020689 -1.1175983 0.17051011
000030 07 d3 fd be 7c 0d 33 3e 7e 7e 6e bf 7a 23 07 3f
       -0.49575064 0.17485613 -0.9316176 0.5278851
000040 49 bd cc bf 4a 9e 07 c0 c5 75 5e bf c5 23 de bd
       -1.5995265 -2.1190362 -0.8689845 -0.10846666
000050 ca 5f 8d 3e 14 c9 19 3f c4 75 8d be 2a 97 c0 bf
       0.27612144 0.60072446 -0.2762891 -1.5046132
000060 6b 22 b3 be fa c0 68 bf 4a f2 48 be 79 dd a7 bb
       -0.34987196 -0.9091946 -0.19623676 -0.005122837
000070 b2 79 1f 3f b7 b6 a7 bf 70 dc 75 bf f4 42 61 bf
       0.6229507 -1.3102635 -0.96039486 -0.8799279
000080 3e 8b b3 bf ec eb 87 be 26 91 19 be e5 91 81 be
       -1.4026868 -0.26547182 -0.14996776 -0.2530662
000090 16 72 af bb f9 5f 27 3e c4 87 05 3e 34 ff ea be
       -0.0053541763 0.16345204 0.13040072 -0.4589783
0000a0 bb 53 26 bf 1d 03 30 bc 00 13 40 bd 51 5c 0e be
       -0.6497151 -0.01074293 -0.04689312 -0.13902403
0000b0 22 ee 2a 3f 03 21 9b bd 41 59 01 40 51 f7 93 be
       0.6676961 -0.07574656 2.0210726 -0.28899625
0000c0 0b 26 50 bf f1 3d 8f bf 9d 82 10 c0 e9 f5 db be
       -0.8130805 -1.1190778 -2.257972 -0.42961052
0000d0 cd 69 19 3f f2 10 a5 be 37 d1 6d be bf ad f5 be
       0.59927064 -0.3223949 -0.2322434 -0.4798412
0000e0 e5 ec dd bf 0b 9a e7 3e f0 f8 20 bf 4a 0d ff be
       -1.733792 0.45234713 -0.6287985 -0.49814826
0000f0 09 a9 66 bf d2 98 c1 3d 14 da 64 bf d9 61 c2 bf
       -0.9010168 0.09452976 -0.8939526 -1.5186111
000100 b6 6f 01 c0 4f 9d 92 be 21 36 29 be 4c 76 2f be
       -2.0224433 -0.28635642 -0.16524555 -0.1713497
000110 0a a6 8b bf 16 6b c2 3e 0e 97 49 be 22 d4 87 3f
       -1.0910046 0.37972325 -0.19686529 1.0611613
000120 41 8b 8e 3f 49 44 91 bf 93 b2 87 3e f4 fc 4b be
       1.1136247 -1.1348964 0.2650343 -0.19920713
000130 ae 70 09 c0 0b bb b2 3e 12 2c 10 bf cc dd 41 3e
       -2.1475024 0.34908327 -0.56317246 0.18932265
000140 01 eb 64 3e 74 52 87 bf 50 76 f5 bf 53 4f cc bf
       0.22355272 -1.0572038 -1.9176731 -1.5961708
000150 4e 71 90 bf 7d e0 3f bf fb 3e 5e 3e 47 25 9f bf
       -1.1284578 -0.74951917 0.21703713 -1.2433251
000160 72 73 fa be bd ac 92 bd be 1c ab 3f 55 dd 3e 3e
       -0.48916203 -0.071618535 1.3368146 0.18639119
000170 31 c4 15 be f5 5d 08 bf f0 2f 8b be 48 44 0b 3f
       -0.14625622 -0.5326837 -0.2718501 0.54401064
000180 66 a3 60 3d e0 f0 e1 bf 7f af 4d bf eb b2 c9 bc
       0.05484333 -1.7651634 -0.8034591 -0.024621448
000190 f7 a1 be bf bf 7e 13 bf 02 4c 9a 3e 69 4f 59 3f
       -1.4893178 -0.57615274 0.30136114 0.84886795
0001a0 b8 b9 88 3e de e0 61 bd cc d2 b5 3e b6 b8 ba 3f
       0.26704192 -0.05514609 0.35512388 1.4587619
0001b0 f7 04 95 bf 32 52 16 bf 03 d6 85 bf 79 39 a0 3d
       -1.164214 -0.5871917 -1.0455936 0.07823462
0001c0 df 5e 81 3d 04 e3 c1 3e 99 05 47 c0 62 af f4 be
       0.06316923 0.37868512 -3.1097167 -0.47790056
0001d0 53 bf 1f be ff db 91 bf 35 8f 8f bf 21 45 85 bf
       -0.15600328 -1.1395262 -1.1215578 -1.0411721
0001e0 4d d8 3b bf 94 5e e7 bd db 6f f3 bf d3 9b 12 bd
       -0.73376924 -0.11297336 -1.901851 -0.035793137
0001f0 a4 5a 47 be 9c e4 2a bf f0 51 eb bd 3c 64 dd bf
       -0.1946817 -0.6675508 -0.11490238 -1.7296214
000200 c6 97 b4 bf 91 2b e2 bf d8 59 53 bf 97 e5 77 3e
       -1.4108818 -1.7669545 -0.82558966 0.24208675
000210 f5 c7 5f 3f a8 64 77 be 1b d8 09 bd 4a f7 2b bf
       0.87414485 -0.24159491 -0.03365336 -0.6717421
000220 a0 ce 77 bf ce 0d e4 bf e8 b1 cb be 5a 20 9a bf
       -0.9679966 -1.7816713 -0.3978417 -1.2041123
000230 dc bc 30 c0 a6 77 8f 3e 78 42 bb bf 1f ab 32 bc
       -2.761527 0.28020972 -1.462966 -0.010905056
000240 8d 50 05 c0 45 a9 50 bf 36 38 60 c0 45 86 3e bf
       -2.0830414 -0.81508285 -3.5034308 -0.7442363
000250 2b 91 c0 3f fc 19 64 c0 d9 6c a3 bf a2 89 28 c0
       1.5044302 -3.564086 -1.2767593 -2.6334004
000260 54 f3 ae bf 7c 3c 5d 3f a4 31 65 bf 7f 91 72 be
       -1.3668008 0.86420417 -0.8952887 -0.23688315
000270 c5 3e 44 be 94 ae 02 bf 49 87 5e c0 60 49 8f bf
       -0.1916457 -0.51047635 -3.4770072 -1.1194267
000280 b3 c9 59 3f 80 1f ae bd 30 21 a4 be e0 d7 34 bf
       0.85073394 -0.08502102 -0.3205657 -0.706419
000290 44 e6 46 bf e8 3b 1c 3f 21 56 cc bf 5e 97 26 3f
       -0.7769511 0.6102891 -1.5963784 0.6507472
0002a0 b8 92 df 3e f4 30 83 bf b3 44 1d bf 00 04 e3 be
       0.43666625 -1.0249314 -0.6143295 -0.4433899
0002b0 33 b1 94 3e 5c ba af 3e b4 f8 5c bf af d5 38 3e
       0.29041442 0.34321868 -0.8631699 0.18050264
0002c0 c9 2c 2d c0 2c d3 4a bf 42 2c 8f 3f fd bd da bf
       -2.7058585 -0.7922847 1.1185381 -1.708923
0002d0 32 40 97 be 7f cd 2c 3e f5 e3 3e c0 f6 25 a6 bc
       -0.29541165 0.16875266 -2.9826634 -0.020281773
0002e0 89 b6 ab bf 82 61 ff 3e 11 2f 9d be 0a 6b 0a 3f
       -1.341508 0.4987908 -0.3069997 0.5406958
0002f0 ae f0 bc bf e0 98 87 3f d8 93 3f bf 04 77 c4 bf
       -1.476095 1.0593529 -0.74834967 -1.5348821
000300 3d 3f 5b 3e 3a 00 b6 be 88 68 2c be fe 22 ad bf
       0.21410842 -0.35547048 -0.1683675 -1.3526304
000310 3d 2e 42 bf ac f1 8c bf cc e1 19 3d 3f 1f 23 3e
       -0.75851804 -1.1011252 0.037568852 0.15929888
000320 c5 cc d1 be 75 1a 1b bf 58 83 43 3e 9d fb 29 bf
       -0.4097654 -0.60587245 0.19093072 -0.66399556
000330 39 0e 28 3e d7 ff 07 c0 51 a7 89 bf ee 41 84 c0
       0.16411676 -2.1249902 -1.0754186 -4.133048
000340 97 2e 65 bf 92 ba 35 3e 98 5e ec bf 2c 5c e9 be
       -0.89524215 0.17746952 -1.8466368 -0.45578134
000350 fb 8a fa 3f 41 41 de bf ff 0c 23 c0 95 0b 64 bf
       1.9573663 -1.7363664 -2.5476682 -0.8908017
000360 1e 2c 02 bf 0d 58 45 3e c8 30 51 c0 ec 92 a1 3e
       -0.5084857 0.1927187 -3.2686024 0.31557405
000370 3d 2f 67 3e af 75 d4 3e 87 64 0a c0 de 0d 27 bf
       0.22576614 0.41496035 -2.1623857 -0.65255535
000380 78 76 63 bd 73 85 9a bf 05 6b e6 bf f5 46 4b bf
       -0.055532902 -1.2071975 -1.800141 -0.79405147
000390 03 0b 57 3f b0 a9 50 bf be ee 3c bc 3a b9 fa be
       0.8400118 -0.8150892 -0.01153153 -0.48969442
0003a0 b2 74 38 3f 1e 41 d2 bf 21 b0 41 c0 7b ec bc bf
       0.7205306 -1.6426122 -3.026375 -1.4759668
0003b0 7a 32 c0 be 62 db 04 c0 46 72 8e bf ca 64 8b bf
       -0.3753851 -2.07589 -1.1128623 -1.0890133
0003c0 b8 78 88 bf a8 11 50 be b2 d3 33 bf 9c 83 a1 bf
       -1.066184 -0.20319235 -0.70244896 -1.2618289
0003d0 32 3b ad 3d e9 6a de bf eb d0 bc bf cc 2a 03 bf
       0.08458556 -1.7376376 -1.4751257 -0.5123718
0003e0 1e 3f ca bf fa 46 d0 be 94 c9 38 bf 2a b5 c8 bf
       -1.5800512 -0.4067915 -0.72182584 -1.5680287
0003f0 f9 84 9b bc 4b f3 84 bf 15 7b da 3e 89 3f 56 be
       -0.018984305 -1.0386747 0.4267203 -0.20922674

actor_model.l2.weight f4 [256, 256]
000000 30 e8 f4 be 08 5d 48 be 82 f1 02 bf 8c 36 24 be
       -0.47833395 -0.19566739 -0.5114976 -0.16036433
000010 82 3a f1 be 06 8f d2 3e 44 57 0b 3f 3d f6 15 bb
       -0.4711495 0.41124743 0.5443003 -0.0022882365
000020 37 4b bb 3d df 30 33 be 1f 4a e5 3d e0 9a 5b bd
       0.091452055 -0.17499112 0.11195778 -0.053614497
000030 33 77 40 3e 9a c2 db be 11 8c 81 3e 2b 72 a1 3e
       0.18795471 -0.42921907 0.25302175 0.31532416
000040 dd 21 89 be 64 52 23 3e aa cc 8b be 77 9e 28 be
       -0.26783648 0.15949398 -0.27304584 -0.164667
000050 fe c5 e3 3c 9e 98 02 bf 72 e9 6a be 76 20 7e 3f
       0.027804371 -0.51014125 -0.22940615 0.9926828
000060 0b ab cd 3e 53 a2 9e 3d af a1 9c be 7e 08 ac be
       0.40169558 0.07745805 -0.30592105 -0.3360023
000070 9a e7 90 3e 81 eb 98 be 26 0c 3f be 6f ec 2d be
       0.28301698 -0.29867175 -0.18656978 -0.16984724
000080 ed f8 c1 3e bc 3a aa bf d1 97 85 bf 18 d6 e0 be
       0.37885228 -1.3299174 -1.0436956 -0.4391334
000090 2b 0e b2 3d f3 aa 55 3f 41 9b 1c 3f 3b 06 e3 3d
       0.086941086 0.8346397 0.611744 0.11085173
0000a0 2a 61 1c 3e 36 f7 c8 be bd d9 26 bf 0d 48 3e 3f
       0.1527144 -0.39251107 -0.6517599 0.7432869
0000b0 fa 12 9f 3d 1c 14 7f 3e fa 1a 01 bf 5b e9 50 bd
       0.07767291 0.24910015 -0.5043179 -0.051003795
0000c0 b2 de 4d be 38 23 ee 3c b2 df d9 3d 9e c8 aa be
       -0.20104483 0.029069528 0.106383696 -0.33356184
0000d0 60 31 b6 3e 28 c6 d9 be 64 ce 6f bf 54 6b ed be
       0.35584545 -0.42533994 -0.936743 -0.46370947
0000e0 67 d5 8e 3e de c4 97 bf 23 c4 f5 be db d3 1e 3e
       0.27897188 -1.1856954 -0.48001203 0.15510504
0000f0 7a 73 a9 3e 0e 9f 55 3e c7 92 d2 be f5 36 e1 bd
       0.33095914 0.20861456 -0.41127607 -0.1099681
000100 41 23 88 bf d5 b7 05 bf d1 10 20 be 0f c1 85 be
       -1.0635759 -0.5223363 -0.15631415 -0.26123855
000110 ef 59 95 be 7b df 87 bf bb d1 49 3e 40 75 1e 3b
       -0.29170176 -1.0615076 0.19708912 0.0024178773
000120 28 e9 16 3e ee c8 0d be 2e 28 96 bf 65 cd 99 be
       0.1473738 -0.1384618 -1.1731012 -0.30039516
000130 ce b5 52 be 06 c1 15 bf e3 1c cb be d3 7c 2a be
       -0.20577165 -0.58497655 -0.39670476 -0.16649179
000140 d4 9a c3 3d 19 42 db be 75 b5 0d 3f d6 18 82 be
       0.095510155 -0.42823866 0.55355006 -0.25409573
000150 ee 9e a8 3d 1c 0b 1d bf 7d dc be 3e a5 eb c6 be
       0.082334384 -0.61345077 0.37277594 -0.38851658
000160 65 bc 3b 3d 10 bb 60 bf 25 d3 08 3d ac 0c 72 bf
       0.045833964 -0.87785435 0.033404488 -0.94550586
000170 b9 34 29 be 41 be 0b bf 33 ef 10 bf c5 b0 03 bf
       -0.16524018 -0.5458718 -0.5661499 -0.51441604
000180 58 ad c9 bd 2b 25 98 3c df 40 e8 3d 48 70 56 3e
       -0.09847516 0.01857241 0.11340498 0.2094127
000190 26 01 90 3e d3 e7 e4 be 46 d7 49 3f 36 c8 a9 bf
       0.28125876 -0.44708118 0.78844106 -1.3264225
0001a0 ee 3e bc be ac 2a ea be de 9c 56 be ac dd bb be
       -0.36766762 -0.4573568 -0.20958278 -0.3669256
0001b0 88 92 22 bd 11 34 85 3d 5f 57 9e bf 07 05 62 3f
       -0.039690524 0.065040715 -1.2370414 0.8828892
0001c0 a5 df 63 bf ed ee e5 3e b2 23 d0 bc b6 6b 95 3e
       -0.8901313 0.44908848 -0.025407646 0.2918374
0001d0 60 12 38 3f ed 0e 72 be df a3 50 3e bd 1f f7 3d
       0.7190304 -0.23638506 0.20375012 0.120666005
0001e0 cb 72 65 3e cd 79 e3 3d bf af 1d 3f 35 16 0a bd
       0.22407071 0.11107216 0.6159629 -0.033712585
0001f0 f9 bd 17 bd 5f c0 00 be de 10 1e bf 49 0d e7 3e
       -0.037046406 -0.12573384 -0.6174449 0.45127323
000200 82 98 d5 3e 5b af bc be 17 09 78 3e 27 0b 80 3d
       0.41717917 -0.36852536 0.24222218 0.06252127
000210 36 73 40 bf 5d 87 27 bc be 0e b1 bd 0d e7 12 be
       -0.751758 -0.010225144 -0.0864539 -0.14345951
000220 87 f2 a5 3e cf 0c 51 be 78 da 35 3f 09 04 30 3e
       0.32411596 -0.20415042 0.7103648 0.1718904
000230 50 b6 d9 3e 46 f6 8a bf 66 19 c5 bd 62 ba 20 bf
       0.42521906 -1.0856407 -0.09623985 -0.627844
000240 7d 6d c7 bd b8 8a 8b bd d6 82 31 bf 78 0b 07 bf
       -0.0973768 -0.06813568 -0.69340265 -0.52751875
000250 99 69 92 be 9a 0c e5 3e 0e bf de bd d2 e8 d0 bd
       -0.2859619 0.44736177 -0.108762845 -0.10200657
000260 37 b0 fd 3c f2 bd cf be 8f 7f 7c be aa a5 e3 3d
       0.030967815 -0.40574604 -0.24658035 0.11115582
000270 2b 59 45 3e 76 cb 5d 3f d4 61 54 bf 03 da 6a 3e
       0.19272296 0.8663858 -0.82961774 0.22934727
000280 90 b7 1d bc b7 b3 e6 3e 58 76 1f 3f a6 dd d7 3e
       -0.009626284 0.45058987 0.62289953 0.42161292
000290 2b 74 d5 3e b4 22 40 be 41 f3 16 be 3a 42 e4 3e
       0.41690192 -0.18763238 -0.14741232 0.44581777
0002a0 61 fb 9e be 9e de de 3e a0 8b 9b 3e 69 86 fb bd
       -0.31051162 0.43529218 0.30379963 -0.12281496
0002b0 ab 74 2c 3e 8c 59 b1 bd 2c 94 0b 3f 5d ab a2 bd
       0.1684138 -0.08659658 0.5452297 -0.07942841
0002c0 c2 e6 5e be d8 d0 c1 be 90 f6 2b bf 05 28 e4 bc
       -0.21767715 -0.37854648 -0.671731 -0.027851114
0002d0 43 a5 1b 3f a1 fb 46 bd 62 4b d0 3e 1c 4b 92 bf
       0.60799044 -0.048579816 0.40682513 -1.1429172
0002e0 4d 4f 10 be 84 82 94 3e 69 f1 41 be 83 44 45 3c
       -0.14092751 0.29005826 -0.18939747 0.01204026
0002f0 3c 36 27 bf af f3 ea 3d ee 55 47 3e 95 cb 98 3e
       -0.6531713 0.1147226 0.19466373 0.2984282
000300 de 42 61 be c0 23 9e bc df fb a9 bd e2 d2 95 be
       -0.21998164 -0.019304156 -0.08299994 -0.29262453
000310 94 7b 87 be 54 c0 1e bf 0c 08 20 3e 3b 4d f6 3e
       -0.2646147 -0.6201222 0.1562807 0.48105797
000320 ba 8a 00 3f f1 5f 68 be b4 81 6b 3e f5 c3 74 3e
       0.5021168 -0.22692849 0.22998697 0.23902877
000330 26 49 06 bf e0 84 ca 3d 14 47 1f 3e 33 c4 8b 3e
       -0.52455366 0.09888625 0.15554458 0.27298126
000340 35 64 b1 be 3a ad 44 bf be 77 2a 3f 0d 72 b7 be
       -0.34646764 -0.7682682 0.6658896 -0.358292
000350 93 77 aa bd 1a 25 93 be da db 61 bf e4 1d 94 3e
       -0.08323588 -0.28739244 -0.8822609 0.28929055
000360 df df 43 3e 8f f8 32 3d 1e c1 1d 3e 72 fa 4b be
       0.19128369 0.043694075 0.154057 -0.19919756
000370 02 dc 36 be 7a 17 87 bf 59 7d 1a bf ca 6e 7c be
       -0.17857364 -1.055404 -0.60347515 -0.24651638
000380 46 2d 86 3e b9 11 52 3e fc c1 15 bf 62 43 0f 3e
       0.26206416 0.20514573 -0.5849912 0.13990548
000390 f6 f2 34 3c c3 5c 55 bf f4 8e 0a 3e 0f a2 a4 3e
       0.0110442545 -0.8334467 0.13531095 0.3215489
0003a0 7b 43 90 3d ce 51 82 bd 79 42 95 3e 59 ea 0d 3f
       0.07044121 -0.06363259 0.29152277 0.5543571
0003b0 e1 e8 82 bf ae aa 7b 3e 39 d2 cc bc 93 72 de 3e
       -1.0227319 0.24576828 -0.025002586 0.43446788
0003c0 2e ec e4 3e b8 e6 26 bf ed 12 b0 be 2a 8d 7f 3e
       0.4471144 -0.651958 -0.3438944 0.24956194
0003d0 d8 46 3d 3e 5c 46 29 bd 2f 37 02 be ab 4e 3d 3e
       0.18484056 -0.041326866 -0.12716363 0.1848704
0003e0 4a c9 3b 3f 72 d7 96 bf 08 8a 29 bf 82 af 18 3f
       0.7335402 -1.1784499 -0.66226244 0.59642804
0003f0 a3 e3 d2 3e 0b 65 dd be 0e 03 3d 3f 7d 48 72 bf
       0.41189298 -0.43241152 0.73832786 -0.9464186

actor_model.l2.bias f4 [256]
000000 62 75 16 bf 5e fa 3e bf 2b 02 ff be 5b 69 89 3e
       -0.5877286 -0.7460078 -0.49806342 0.26838192
000010 17 2a 8e bd e4 6a 13 c0 90 4f 1b 3f 7d 79 00 3e
       -0.06941622 -2.303399 0.6066828 0.12546344
000020 f7 ec 68 3e 32 75 92 3d 3f 25 ed bd 70 06 b1 3e
       0.22746645 0.071512595 -0.1157937 0.34575224
000030 99 20 9d bf 98 71 c3 bf 48 c0 45 be dc f1 2f bf
       -1.2275573 -1.5269041 -0.1931163 -0.68728423
000040 71 b5 05 bf 54 c4 54 be e9 3e 12 bf 31 46 4b 3d
       -0.5222998 -0.20778018 -0.57127243 0.049627487
000050 50 1a 07 c0 bd 48 ac bf fe 90 2b bf 47 0f 55 3e
       -2.110981 -1.3459698 -0.67018116 0.20806609
000060 57 0c 6f be ca 95 02 3f 98 52 a7 bf 50 8c 41 3f
       -0.23344551 0.5100981 -1.3072081 0.75604725
000070 e5 84 8e bd 47 20 88 bf 6a 3e 6b bf 5f 93 88 bf
       -0.06958941 -1.063485 -0.9189211 -1.0669974
000080 6a 4f 4d bf 4a 66 65 3f 56 0c cd 3e b0 1c e3 bd
       -0.801993 0.89609206 0.40048474 -0.11089456
000090 b1 1b 82 bf 42 ff a9 be 05 37 4d 40 29 3b 00 be
       -1.0164701 -0.3320256 3.2064831 -0.12522568
0000a0 e8 9d 68 3d 5d a7 ec bf 0f ab 09 bf e9 b8 72 3e
       0.056791216 -1.8488575 -0.5377664 0.2370335
0000b0 66 1f 04 c0 35 7e 34 bf ee 05 0f c0 c8 a6 32 bf
       -2.0644164 -0.70505077 -2.234737 -0.6978574
0000c0 8b a5 b3 be a5 3d 86 3d 30 6f bb 3e e2 0a 68 3f
       -0.35087237 0.065547265 0.36608267 0.90641606
0000d0 3e fa 2b bf 3d aa 67 bf 95 47 f7 bf 1b 0b 10 c0
       -0.67178714 -0.9049414 -1.931872 -2.2506778
0000e0 8a 16 41 3e 2f 99 f1 3e 99 7f 18 c0 7a cf ab 3e
       0.18856254 0.47187182 -2.382788 0.3355673
0000f0 8d 1f 21 be 08 3a 6e be 2e 8e 08 c0 7c e0 2a bf
       -0.15734692 -0.23264325 -2.133678 -0.66748786
000100 51 ea 68 3c 12 c5 94 3d 36 e0 e1 3e 77 45 b8 bf
       0.014216022 0.07264151 0.44116372 -1.4396199
000110 e3 c5 87 bf c3 64 39 bf 6b b8 c3 bf c2 13 ee bf
       -1.0607265 -0.72419375 -1.5290655 -1.859978
000120 e0 2b 8d bf 9b fc f3 bf 50 f3 58 3e b9 3d a8 be
       -1.1029015 -1.9061464 0.21186566 -0.3285959
000130 ae 6e f4 3e d5 98 27 3f 3c 97 af 3f ae 3e ff bf
       0.47740692 0.6546758 1.3718028 -1.9941003
000140 43 51 2d bf 22 59 27 bd ca 21 92 bf a9 d4 13 bf
       -0.6770212 -0.040856488 -1.1416562 -0.5774637
000150 d7 64 b4 3e 34 b5 b8 bf d8 c9 be bf ab ce ce 3e
       0.35233185 -1.4430299 -1.4905348 0.4039205
000160 ba c0 dc 3f 14 29 e5 bf b9 89 e9 be 36 b6 68 bf
       1.7246315 -1.7903161 -0.45612887 -0.9090303
000170 c9 3f 29 3d 4a 05 92 3e f1 88 b7 3f f5 37 2b 40
       0.041320596 0.2851966 1.4338666 2.6752903
000180 7a 9c 6c 3f d6 aa 2b bf bf c1 42 bd 62 92 a5 3e
       0.92426264 -0.6705755 -0.047548052 0.32338244
000190 db b0 9a bf eb bb 8c bf d6 0d b3 be 90 88 b2 3d
       -1.2085222 -1.0994848 -0.34971493 0.087174535
0001a0 c4 55 f0 bc 8a cc 15 3f 21 ff 2d 3e 54 a0 c1 bf
       -0.029337771 0.58515227 0.16991855 -1.5127053
0001b0 bd 47 c0 bd a0 2c a8 3f 91 ed 58 c0 10 75 c4 be
       -0.09388683 1.3138618 -3.3895 -0.38370562
0001c0 17 3b 25 bf 0a 11 00 bf 76 c3 88 bf f2 67 e1 be
       -0.6454329 -0.50026 -1.068465 -0.44024616
0001d0 c6 9e eb 3e 49 87 9f 3e 36 ff 55 3f 2d 4e b9 be
       0.46019572 0.31157902 0.83592546 -0.36192456
0001e0 ef 9e 24 bf 5f 19 0c 3f 19 53 e8 3f 92 5d 3f bd
       -0.64305013 0.54726213 1.8150359 -0.046720095
0001f0 ee 73 13 3f 37 83 3b bf 0d 5e 22 bf 56 43 42 3f
       0.5759877 -0.7324709 -0.6342476 0.75883996
000200 2b e8 19 3f 24 1a 18 bf 9f 86 39 bf ce 86 c8 3d
       0.60119885 -0.5941489 -0.7247104 0.09791337
000210 92 37 7e bf 35 0e f0 be 22 13 c2 bf ef e2 56 3f
       -0.99303544 -0.4688584 -1.5162089 0.83940023
000220 de e5 a3 be 84 7b 3c bf 16 73 f4 3d fd 81 c5 3d
       -0.32011312 -0.7362597 0.119360134 0.09643934
000230 c1 6a 62 bf 6b bc ff bf 99 b1 5e bf dc 84 82 3f
       -0.88444144 -1.9979376 -0.8698974 1.0196795
000240 a8 5e bb be af 9e c3 bf 04 ed 07 bf d9 ea 90 bf
       -0.36595654 -1.5282801 -0.5309603 -1.132167
000250 60 f8 81 be b5 59 a4 bd 74 13 46 bf 37 a3 ec bf
       -0.25384808 -0.08024923 -0.77373433 -1.8487309
000260 64 6b b3 3d 1f f4 a5 be 29 f9 e2 3f a5 bc 07 3e
       0.087607175 -0.32412812 1.7732288 0.13255556
000270 97 90 fe be d5 74 2d c0 5d 77 7f 3d 33 47 02 bf
       -0.49719688 -2.7102559 0.062369693 -0.5088989
000280 f4 6b d7 be 61 3d 6d bf fc fd bc 3e 15 62 01 bd
       -0.4207455 -0.9267178 0.36912525 -0.03158768
000290 86 c2 58 bf c7 3b 98 bd 9d 0c 84 bf 4a ab 66 be
       -0.8467182 -0.074332766 -1.0316349 -0.22526279
0002a0 c0 5d 8e 3f 6f c1 c4 3e 6c 7d e0 be 27 0a e2 3f
       1.112236 0.38428828 -0.4384569 1.7659348
0002b0 51 7f 50 bf ca c7 a5 3e 10 6a 77 be c0 86 bd 3e
       -0.8144427 0.3237899 -0.24161553 0.3701687
0002c0 8f 49 29 bf ea bf 28 3e 7d 75 e2 bf bf 54 85 bf
       -0.66127867 0.1647946 -1.7692105 -1.0416487
0002d0 5a 5c 89 bf b6 2b a1 bf d0 a3 fb bf 15 99 13 3d
       -1.0731308 -1.2591465 -1.9659367 0.036034662
0002e0 b3 f7 90 bf 0b b3 0b be f8 64 d3 be aa 52 01 bf
       -1.1325592 -0.13642518 -0.4128797 -0.5051676
0002f0 32 f6 e0 3c f2 ff 41 bf 39 5f cf bf ff b1 60 3e
       0.027461145 -0.75781167 -1.6200935 0.219429
000300 cc b7 6d bf ed f8 b7 be d8 b1 a1 3d c0 44 29 c0
       -0.92858577 -0.35932103 0.07895249 -2.6448212
000310 10 f2 07 3f 15 90 24 bd 59 c2 8c bd 3b 04 8a be
       0.53103733 -0.04017647 -0.068730064 -0.26956353
000320 48 1b 17 bf 30 3e 1e 3f cd 99 06 bf ef da e5 bf
       -0.59026 0.6181364 -0.5257843 -1.7957438
000330 8b e9 ee 3d 9d de 04 bf 17 d3 40 3f a9 21 24 be
       0.116656385 -0.5190218 0.753221 -0.16028465
000340 5c 6c d1 bf cf 75 2c bf 2e d8 05 c0 28 41 28 3d
       -1.6361194 -0.6736726 -2.0913196 0.041077763
000350 5d 12 43 be 2a 5e c9 bf 1e cf 53 bf af 44 97 bf
       -0.19049974 -1.5731862 -0.8273791 -1.1817836
000360 18 4d 63 bf 49 0e 8e 3f f4 c9 d2 bd e1 6a 6e 3e
       -0.8878951 1.109811 -0.10292426 0.23282959
000370 1c 19 bd bc 4b 82 94 be 1e ec f2 be a2 fd 4e bf
       -0.023083262 -0.29005656 -0.47445768 -0.8085576
000380 dc 6b e2 bc 51 56 65 bf 0e 9e 55 3e 0e 13 d7 be
       -0.027639322 -0.89584833 0.20861074 -0.42006725
000390 8a c6 ba bd b3 14 de bd a9 f0 25 3f 92 1a 0f bf
       -0.091198996 -0.10843792 0.64820343 -0.5589992
0003a0 49 0b 53 3f cd 09 ff 3e 1b 4e cf be 92 01 8c 3f
       0.82439095 0.49812165 -0.40489277 1.0937979
0003b0 56 76 3b 3e 7d 9f 2c 3f 2c 46 9a 3f e8 c8 99 bf
       0.1830686 0.6743086 1.2052665 -1.2014437
0003c0 57 f3 2b be 8b 79 bd be 36 96 1c 3f 4e 47 24 c0
       -0.16792046 -0.37006792 0.61166704 -2.566852
0003d0 bf a1 87 bf a0 1e b5 bf e8 57 3f bf 9f 3f 56 3d
       -1.0596236 -1.4149971 -0.7474351 0.052306768
0003e0 ab 5a d5 be 18 3f 89 be 16 b8 3b be cb f3 39 bf
       -0.41670737 -0.2680595 -0.18331942 -0.72637624
0003f0 9b d6 c1 bd 5f 76 0b bf 1a f6 ed be 53 5f 1d bf
       -0.09464761 -0.54477495 -0.46476823 -0.6147358

actor_model.mean_linear.weight f4 [6, 256]
000000 28 8e a8 bc 44 f8 19 3c d1 63 46 3d 4f 65 28 bd
       -0.020575598 0.00939757 0.048435036 -0.04111224
000010 39 f7 e1 bc 28 70 02 3e 2d c0 98 3c 27 97 cd bb
       -0.027583705 0.12738097 0.018646324 -0.0062741223
000020 4e 94 91 3b bb 98 ad bd 22 0a 77 3d 25 25 d0 bb
       0.004442728 -0.08476397 0.060312398 -0.006352084
000030 51 d6 49 bd 32 94 d9 bd a0 e3 75 bd c2 8d f9 3b
       -0.049276654 -0.10623969 -0.060031533 0.007615776
000040 47 44 6b 3d a0 c0 d4 bd a9 48 e8 3d e4 ea 17 3e
       0.05743816 -0.10388303 0.11341984 0.14835697
000050 d2 72 d1 bd df 28 a4 bd fc d0 a7 bd 1e 02 6b 3d
       -0.10226978 -0.08015608 -0.081941575 0.057375066
000060 f5 10 d2 3d 41 a3 14 3d 3f df 3c 3c c9 ce 7c bc
       0.102571405 0.036288504 0.011527835 -0.015430161
000070 06 2d 76 bd 62 f9 e1 3a 5a 55 ef bc f0 3e 13 3c
       -0.06010153 0.001724046 -0.029215503 0.008987173
000080 29 4d 25 bc 6e d5 3f 3c 4a 56 b5 3d 6b 3b 39 bd
       -0.010089197 0.0117086 0.08854349 -0.04522268
000090 ab b3 4c 3d eb 69 c9 3c e9 23 06 be b7 95 d3 bd
       0.049976032 0.024586638 -0.13099636 -0.1033129
0000a0 ae ec dc 3d 6e 70 91 bd 6f 5c d2 3c c6 7f 07 be
       0.107873306 -0.071015224 0.025678841 -0.13232335
0000b0 e2 0b 65 be 03 4b 1c 3d 2e 06 7e bb 3d ac a6 39
       -0.22367814 0.038157474 -0.0038761008 0.00031790315
0000c0 51 9f bc bd 35 51 9d 3d 17 bb c7 3c 6b 4e 92 3d
       -0.09210075 0.07681505 0.024381204 0.07143863
0000d0 62 ff 98 3d 0f f7 02 be ab f4 9b ba 3d d6 03 bd
       0.074705854 -0.12789558 -0.0011898478 -0.032186735
0000e0 89 0e 6a bc d9 32 77 bc f9 12 0a bd a1 f1 06 be
       -0.014285692 -0.015087807 -0.0337095 -0.13178112
0000f0 19 77 32 bd 2b 05 74 bd db e7 97 bc ee 7c 20 bd
       -0.04357061 -0.05957524 -0.018543174 -0.039181642
000100 23 bd 3a bc 2a 63 09 3c ed e2 32 bc eb 73 ad bc
       -0.011397633 0.008385459 -0.010918361 -0.021173438
000110 fc 4c 85 bd e4 ee 71 3d 91 cb eb 3c 33 74 1d 3c
       -0.06508824 0.059065714 0.028783591 0.009610224
000120 34 c6 68 3d 59 bb ab bc b2 52 ae 3d 87 39 23 bd
       0.056829646 -0.020963358 0.08511867 -0.039849784
000130 4f 57 44 3e dd 49 c2 3d 25 d1 d5 3d 44 f8 00 bc
       0.1917393 0.094867446 0.10440282 -0.007871691
000140 f9 0e 61 bc b4 bf 1f bd 40 47 72 3d be 67 a0 bd
       -0.01373648 -0.03900118 0.05914998 -0.07832287
000150 3c 4c cc 3c 93 5e e9 bc 2a 40 1e be e4 f5 b0 3d
       0.024938695 -0.02848748 -0.15454164 0.0864065
000160 95 f2 04 3d 92 47 05 bd 1a 0e 92 bd 6e f0 88 3d
       0.032457907 -0.032538958 -0.07131596 0.06686483
000170 ad 7a 92 3d b7 46 a2 37 90 d5 42 3c 8f 2d 8e 3b
       0.07152305 1.9344834e-05 0.011891738 0.004338927
000180 3c ca 03 3d d0 b9 f3 bb 6e 91 9f 3d 96 31 8a bd
       0.032175288 -0.007437922 0.077914104 -0.06747739
000190 68 59 d3 bb 02 d1 54 3c 5a 54 93 bd 48 96 fe 3c
       -0.006449867 0.0129892845 -0.07193823 0.031077519
0001a0 21 f3 d5 bc 98 88 95 3d 74 ec 38 be 41 21 10 bd
       -0.02611691 0.07301444 -0.1805895 -0.035187963
0001b0 73 7c b5 bd d0 71 71 3d 73 86 c4 bd 5b 8b 5b 3c
       -0.088616274 0.05894643 -0.09595957 0.013399924
0001c0 84 1d ed 3d e6 e3 8b bc 9f ac 0a bd 91 fa ec bd
       0.11577895 -0.017076444 -0.03385603 -0.11571229
0001d0 9c ad a5 bd d2 16 b2 3d 39 09 16 39 b6 9a 79 bd
       -0.08089754 0.08695759 0.0001430855 -0.06093856
0001e0 3f 6c 01 be de c8 24 3c 4f 58 8d 3d 08 27 88 bb
       -0.12638949 0.010057656 0.06901609 -0.0041550435
0001f0 73 f0 53 3d c9 07 fb bb 18 31 89 3d 3a 32 33 bc
       0.051742982 -0.00766084 0.06698817 -0.010937268
000200 0a 2b ab bd 97 4c fc 3d 37 67 a8 3b 79 02 91 bd
       -0.083578184 0.12319296 0.0051392573 -0.0708055
000210 72 ba 91 bd d5 a8 19 3d 3f 0d f6 3d e8 b8 2c 3d
       -0.0711564 0.037514526 0.12014245 0.042168528
000220 a3 75 85 3d d4 15 7c bd 46 1d 32 bc 37 3e d6 bc
       0.06516578 -0.061544254 -0.010871237 -0.026152713
000230 95 98 18 3c d2 33 e8 bd 1d 57 b5 bc 22 0e 91 3d
       0.009313722 -0.11338009 -0.022136265 0.07082774
000240 a7 5b b4 3b ba 15 10 3d 49 a8 1d bd 05 32 f8 bd
       0.00550409 0.03517697 -0.038490567 -0.121189155
000250 f4 85 b4 bc 64 93 8f 3b a9 9f db 3d 65 b0 3d bd
       -0.02203653 0.004381584 0.10723812 -0.0463108
000260 7d 15 45 bc b4 06 13 3c 93 17 0e 3e 96 5a 11 3d
       -0.012029049 0.008973766 0.1387618 0.03548678
000270 32 3a 3a 3c bd 46 04 3d 74 f3 98 bc 46 b4 b5 bd
       0.011366414 0.032294024 -0.018670775 -0.08872275
000280 41 a6 6e 3d 91 a1 cc bc cf 3e be 3d 96 c1 3e bd
       0.05826402 -0.024979385 0.092893235 -0.046571337
000290 27 89 3c bd 70 ed 78 3d 85 e1 f3 3c ed d9 02 be
       -0.046029236 0.060773313 0.029770622 -0.12778445
0002a0 a7 f7 ba 3d 76 0d 14 be 46 84 53 3d e0 46 85 bc
       0.09129267 -0.1445826 0.051639818 -0.016269147
0002b0 ee 4d 11 3b 19 59 b5 3b 32 2c da ba 8f 82 c4 bd
       0.0022171694 0.005534303 -0.0016645251 -0.095952146
0002c0 2f 8d 17 bc 5f 2f 1c 3d ac da 7d bd 3e 6d fc bc
       -0.009249969 0.038131114 -0.06197612 -0.03081381
0002d0 ad 24 fd 3d 20 21 a2 bc 8f ca 6a bd 8d af 8f 3c
       0.12360511 -0.019791186 -0.05732208 0.017539764
0002e0 24 cb b3 3c 29 b6 c5 3c 2a 0d e9 3c c9 10 ed bd
       0.021947451 0.024134712 0.02844866 -0.11575467
0002f0 42 a7 9e 3c 95 fb ac 3c f2 1b 8e 3c b4 78 1a 3d
       0.019366864 0.021116057 0.01734731 0.037712768
000300 45 14 8d 3d 70 2c 44 3d 43 46 88 3c 0d 81 0e be
       0.06888632 0.04789394 0.016635066 -0.13916416
000310 54 b0 ad bc bf 31 b2 bd df c4 2e bc 17 3a 62 bc
       -0.021202244 -0.087008946 -0.010667055 -0.013807795
000320 79 71 3e bd 9d e1 40 3d c3 e7 cd 3c a6 4a 86 bd
       -0.046494935 0.04709016 0.025134927 -0.06557207
000330 b7 23 ab bd 4b c9 30 bb 5f e8 de 3d 5f 9c 9c 3d
       -0.083564214 -0.0026975449 0.10884165 0.07647013
000340 33 24 af bd ba 13 68 3b 28 6c 1e bd c6 15 5f bd
       -0.08551826 0.0035412149 -0.038677365 -0.054464124
000350 ec 3d 00 bd 7b cd ff 3c 27 5b 80 3d e5 d1 9d bc
       -0.031309053 0.03122591 0.06267386 -0.019265125
000360 42 56 ee 3d 20 d1 b2 bc ee 37 41 b9 a1 e6 2f bb
       0.11637546 -0.021828234 -0.0001842675 -0.0026840346
000370 85 fb 95 bd 7b 6e 6e 3d 94 d3 57 bf de bd e0 bc
       -0.07323364 0.05821083 -0.8430722 -0.027434286
000380 dc df 8c 3d d3 83 ac 3d 11 c5 b9 bd 2a 9e ad 3c
       0.06878635 0.08423581 -0.090707906 0.021193583
000390 4a 9a 4a bc 8f d8 16 bd 87 e2 b0 3d 99 c7 e8 3d
       -0.012365887 -0.03682762 0.08636957 0.11366195
0003a0 eb 17 a4 3c 40 0e a7 bd c6 18 ef 3c 9f 5f 9f 3c
       0.020030936 -0.08157015 0.029186618 0.019454775
0003b0 60 de 8b bc 6f 98 1f 3d 79 66 12 be 85 a0 3d bd
       -0.01707381 0.03896373 -0.14296903 -0.04629566
0003c0 01 20 eb 3d 41 37 82 3d 9a 6c f8 be 6c c4 5e 3d
       0.11480714 0.06358195 -0.48520356 0.05438654
0003d0 db e7 a1 3d 1d 3d 14 3d d4 5d 31 bb 94 ce 58 3c
       0.07905551 0.036191095 -0.0027063983 0.013232846
0003e0 22 13 5d 3c 5a 7c 65 bd 2c 98 a4 bc 93 db ad bd
       0.013493331 -0.056026794 -0.020092092 -0.08489146
0003f0 08 70 ff b9 3f 62 c7 3c 8e 8a 0e be 53 ad d1 3b
       -0.0004872086 0.02433884 -0.13920042 0.0063988357

actor_model.mean_linear.bias f4 [6]
000000 af d6 db bd 6f 99 31 be 20 d2 d4 3e 95 16 5f bf
       -0.10734307 -0.17343687 0.41566563 -0.8714383
000010 3e 3b f0 3e 47 be 0f 3f
       0.46920198 0.56149715

actor_model.std_linear.weight f4 [6, 256]
000000 ba 38 89 ba 8d 77 78 3c 2b cf ce 3b c1 75 5b bb
       -0.0010469176 0.015165222 0.0063113174 -0.0033486935
000010 58 73 84 3c 91 f4 ad 3a f1 98 94 bc c2 3f fc bc
       0.016168281 0.0013271739 -0.018139334 -0.03079212
000020 5f 5e 9a bb 9d 1c 1f bc aa 9e e7 3c 9a 4e 85 bb
       -0.004710957 -0.009711412 0.0282739 -0.004068208
000030 ba bd 43 bc af 3f 0b 3d 8b 3e b8 3c bf c0 df bc
       -0.01194709 0.03399628 0.02249076 -0.027313588
000040 3e 29 4a 3c d8 d5 81 bb b9 65 2a 3b a0 b6 fc ba
       0.0123389345 -0.0039622597 0.0026000573 -0.0019280501
000050 8a 03 fa 3c ff 8c 46 bd 11 3d 30 bb eb 05 ce 3b
       0.030519266 -0.048474308 -0.0026891867 0.0062873266
000060 95 12 ed 3b d8 56 20 3b 36 51 b3 bb b8 68 51 bb
       0.007234881 0.0024465825 -0.0054723276 -0.0031953286
000070 73 a1 ec bb 1b 0f 65 bb fe e6 84 bc 60 d0 b8 bd
       -0.0072213947 -0.003495163 -0.016223427 -0.090241194
000080 c1 8f 88 bc 05 27 58 bc 10 94 93 bc 33 c5 83 bc
       -0.01667011 -0.013192897 -0.018014938 -0.016085243
000090 89 a3 92 3c bf 82 b0 3a 97 08 ba be 06 a6 54 bc
       0.017900245 0.00134667 -0.3633468 -0.012979036
0000a0 e9 a4 a7 3c d6 1a c4 3c ca a8 91 3c 4a 2a 0b 3d
       0.020464377 0.023938578 0.01778068 0.033975877
0000b0 2b 12 ea bc 14 ee ce 3b 9b b0 10 3c 0d 90 b0 3b
       -0.028573116 0.006315002 0.0088311685 0.005388266
0000c0 4a 43 5f 3c 77 65 7a 3c 3f f1 bc 3c 70 af 56 3b
       0.013626883 0.01528298 0.023064254 0.0032758377
0000d0 82 15 36 3d 4b 0e 4e 3d 3d 69 6b 3b 1b d8 8c 3b
       0.044454105 0.0503066 0.0035920881 0.0042982227
0000e0 55 79 15 bc 8a d5 01 3c 23 6e 73 3c c1 28 56 bb
       -0.009123166 0.007924447 0.014857802 -0.00326781
0000f0 03 18 b3 bc 93 76 7f 3c 83 f4 ca 3b b4 73 d6 bb
       -0.021862036 0.015592235 0.006193699 -0.0065445546
000100 70 6e 5b 3c ba 82 2b 3c 05 d2 5d bb 4d eb 61 3b
       0.01339303 0.010468179 -0.0033847105 0.0034472526
000110 86 59 45 3c ef 97 f6 3c 87 eb 97 3c 2c 14 39 3c
       0.01204527 0.030101744 0.018544925 0.011296313
000120 c4 7f eb 3c 7c 62 7c 3b 33 d8 b6 3c 79 30 a8 3c
       0.028747447 0.003851085 0.022319889 0.020530926
000130 54 73 b9 bd 58 f8 02 3d 97 13 2e 3d 82 ca 19 bc
       -0.090552 0.03197512 0.04249915 -0.0093866605
000140 de 26 83 bc 52 5a 78 39 dc 50 13 3c 82 ff 32 bc
       -0.016009744 0.0002368477 0.008991446 -0.010925176
000150 da 26 6a bc b1 e8 b3 bb 2f b1 63 bc 01 7f b1 3c
       -0.0142914895 -0.0054903855 -0.013897224 0.021667005
000160 27 e5 2a 3c 18 e7 2b bb 62 38 cd bc 7b 5c d0 3c
       0.010430611 -0.0026230272 -0.0250513 0.025434723
000170 21 96 14 3c cf d8 ce 3a b0 dd 92 3b fb 60 9b ba
       0.009068997 0.0015781167 0.0044819936 -0.0011854464
000180 f7 8f 87 3c 9d 86 c5 bc a8 65 2d bb 29 6c 05 bc
       0.01654814 -0.02411204 -0.0026458297 -0.008143463
000190 6d 4b af 3b 3f 37 93 3b b1 2c 65 b9 cd e8 7a ba
       0.0053495676 0.00449267 -0.0002185579 -0.0009571433
0001a0 64 89 60 bc ee 82 ec 3c bd 08 13 3d 66 e5 3f 3c
       -0.0137046315 0.028871026 0.035897005 0.011712408
0001b0 83 cd 17 3c 25 85 b9 bc 7b 58 cc bc 71 c1 d3 bc
       0.009265306 -0.022646496 -0.024944535 -0.025849076
0001c0 98 c9 2a 3c 5c 40 56 3c 9a cf 99 bc 6c b8 8a bb
       0.01042404 0.013076868 -0.01877575 -0.0042334106
0001d0 b9 3d 04 3c e3 af 00 3d f6 b3 a5 bb f2 df 0a ba
       0.008071356 0.03141774 -0.0050568534 -0.00052976527
0001e0 b0 7f ea bc f7 ec fc 3a 48 57 e2 3c fe 28 8c bc
       -0.02862534 0.0019296695 0.02762951 -0.01710939
0001f0 42 23 f9 3c 34 06 7a 3b 3e 5f 53 bc 47 09 e8 ba
       0.03041232 0.003815067 -0.0129011255 -0.001770296
000200 4b 55 61 bc c5 19 ad 3c 73 ea d4 3b 0e 57 4b ba
       -0.013753246 0.021130452 0.006497675 -0.00077568076
000210 da f9 c3 bb 7d 65 98 bc e0 b5 a9 3c bc d0 f3 3c
       -0.0059807124 -0.01860308 0.020716608 0.029762618
000220 e6 a1 0a 3d 92 2f 05 bd b7 73 0e 3c dc f6 80 3c
       0.033845805 -0.03251607 0.008694581 0.015742712
000230 c7 a6 44 ba d1 18 53 bc 6a 20 4e bc 45 7b f3 3c
       -0.00075016584 -0.012884335 -0.01258097 0.029721865
000240 47 59 90 3b c6 79 69 ba 13 22 a1 3b 10 da 1a 3d
       0.004405174 -0.000890639 0.004917392 0.037805617
000250 d6 ac 39 bc 0a 2d b1 bb 6f 7f 5d 3b f8 d7 74 bc
       -0.011332711 -0.0054069804 0.003379788 -0.014944069
000260 27 bb 97 3c 00 f9 ff 3b 87 31 35 3d e9 58 6b bc
       0.018521858 0.0078116655 0.044236686 -0.01436446
000270 85 7e 75 bc 86 81 78 3c 9e 4e 94 3b 10 27 33 3b
       -0.014983778 0.0151676 0.0045259735 0.0027336515
000280 fd 71 49 3c b4 1a c5 3b d5 ac 82 bc a3 4a 02 bc
       0.012295243 0.006015146 -0.015951553 -0.007952365
000290 a2 b6 0c bb 3c 29 38 bc d8 97 46 3c df b3 fe bc
       -0.0021471162 -0.0112403 0.012121163 -0.031091629
0002a0 35 d2 a3 3c c3 6f 5a 3d 64 76 07 3d e4 3b 0a ba
       0.019997695 0.05332924 0.03307189 -0.00052732066
0002b0 f7 99 b7 bb d3 c8 cc b9 0c 0b c1 ba 66 a8 41 bc
       -0.005603071 -0.00039059538 -0.0014728024 -0.0118199345
0002c0 a3 9b 00 3c 55 6e 7e 39 d4 fc ae 3a a8 58 89 bc
       0.007849607 0.0002426443 0.0013350495 -0.016765907
0002d0 10 ce e7 3c 44 f5 89 bc ca c1 0a bd 02 81 82 3a
       0.0282965 -0.016840585 -0.033876218 0.000995666
0002e0 0d 5b b5 3b bb de 96 3c ad dc 85 3c 22 33 ce 3c
       0.0055345357 0.018416753 0.016340578 0.025170866
0002f0 8b a4 35 3c e0 a1 1c 3c 39 3d 23 ba 86 7d 66 3c
       0.011086593 0.009560078 -0.00062270794 0.014068013
000300 10 72 23 3d 63 80 05 bb df fc 07 bc 18 41 dc bc
       0.0399037 -0.0020370714 -0.008300035 -0.026886508
000310 8c 3b 9b 3c 16 59 9a bc b0 cf a0 3b ef ff 45 3c
       0.018949293 -0.018841308 0.004907571 0.012084945
000320 09 9f cf bc 36 1b 0b 3d 6b ed 7c 3a 43 18 46 3a
       -0.025344389 0.033961497 0.0009648415 0.0007556716
000330 88 ec d3 3b 8b 72 cb 39 6f cb a3 bc 75 c1 fd 3c
       0.0064674057 0.00038804518 -0.019994466 0.030976037
000340 6f 8f 0b bc cd 9d df 3b a7 ae 6a bb 5c c8 7c 3b
       -0.008518084 0.0068242312 -0.0035809667 0.0038571572
000350 95 07 b5 bc 28 6a 2c 3c ff 9d aa 3c 4d 22 77 bc
       -0.022098342 0.0105233565 0.020827292 -0.015083862
000360 1b 23 8e 3c 7d aa 4b bc 4e fb 5f bb ff 9f 93 3b
       0.017350724 -0.012430784 -0.003417689 0.004505157
000370 a8 42 95 3b 35 68 72 3c 12 81 0c 40 e5 d4 10 bb
       0.004555065 0.014795353 2.1953778 -0.0022099551
000380 ec 92 ae 3c 7f fc e7 3c 33 4b 25 bc 0f 3a cc 3c
       0.021310292 0.028318642 -0.01008873 0.024930028
000390 ce e3 c7 3b 5f 6c 4e bc f5 a3 dd bb 9e e3 7d 3d
       0.0061001545 -0.01259908 -0.00676393 0.06198465
0003a0 07 e4 a7 3b f6 51 ae bc 77 c3 6e 3b 75 eb c4 b9
       0.0051236185 -0.021279316 0.0036432424 -0.00037559462
0003b0 c3 6d e4 3b 44 13 8a 3a 14 87 8d bd cf ec 4a bc
       0.0069710924 0.0010534306 -0.0691053 -0.012385561
0003c0 f7 e1 db 3c e7 2d a3 bc 43 f0 61 3e eb b1 11 3a
       0.026841147 -0.019919349 0.22064309 0.0005557823
0003d0 78 20 ac 3c 81 1f 79 3b b9 84 d8 3b 98 b0 7e 3b
       0.021011576 0.0038013163 0.0066076186 0.0038862582
0003e0 f6 38 33 bb 22 b7 c1 bc 6d a3 30 bc b4 00 a7 bc
       -0.0027347184 -0.023646895 -0.010781151 -0.020386077
0003f0 35 47 60 b9 c5 cf c6 3a 66 7f 13 bd c0 f1 90 3b
       -0.00021388831 0.0015168121 -0.03601017 0.00442335

actor_model.std_linear.bias f4 [6]
000000 6a 3f 0a c0 43 ba 15 c0 b9 fc e3 bf 6f 78 df bf
       -2.1601205 -2.3394935 -1.78115 -1.7458628
000010 b0 f1 17 c0 49 6e e9 bf
       -2.3741264 -1.8236781

critic_model.l1.weight f4 [256, 55]
000000 4f 1c 40 3e 6e 82 ac be 8b b0 78 3e 2a 31 62 3c
       0.18760799 -0.3369326 0.24286096 0.013805667
000010 89 9f 89 3f a5 1d c7 bd 00 38 e5 bf 00 5c a5 3f
       1.0751811 -0.09722451 -1.7907715 1.2918701
000020 66 9d 26 3e 83 14 c8 be 20 f9 6a be cd be 0a be
       0.1627098 -0.3907815 -0.22946596 -0.13549347
000030 da 51 a6 3e 0b 88 0e 40 4a a8 4a bf b4 bf 59 be
       0.32484323 2.2270534 -0.7916304 -0.21264535
000040 30 3d 07 bf bf 72 f5 3e 28 fa f3 be cf a3 08 bf
       -0.5282774 0.47939107 -0.47651792 -0.5337495
000050 81 51 1a bf 42 de e6 3e 62 8e 1e bf e7 f1 db 3d
       -0.60280615 0.45091444 -0.6193601 0.107394986
000060 04 db fe 3e 53 bb 7f 3f 07 bb a9 3d ca 30 29 bd
       0.4977647 0.9989521 0.08287626 -0.041306295
000070 3c 49 33 bf 79 21 61 3d 97 6f 7d 3e 69 a7 d9 3d
       -0.7003362 0.054963563 0.247496 0.10627634
000080 bb 9e 06 be 9b 7a 84 3d 0d 0d ff 3d 68 14 a0 3a
       -0.13146488 0.06468698 0.12453661 0.0012213113
000090 c6 3f 1e be 55 4f 8b 3f a3 88 48 3e f1 b7 45 3f
       -0.15454015 1.0883585 0.19583373 0.772338
0000a0 cc 0d 04 c0 0b 30 d9 3d 8f ba 48 3f bc f1 22 bd
       -2.063342 0.106048666 0.78409666 -0.039781317
0000b0 ca 43 9b bd 49 f5 17 bd ac 2b db 3d e9 23 23 3d
       -0.07581289 -0.037099157 0.10701689 0.03982917
0000c0 8b 13 8f bd 7e a2 70 3e 1b 1f 6a bc 74 9b 16 3f
       -0.069861494 0.23499486 -0.014289643 0.5883095
0000d0 23 18 5a 3e 6f ad 6b bf 36 e8 65 be 0f 93 a5 3e
       0.2129827 -0.92061514 -0.22451863 0.3233876
0000e0 cc 15 69 3d a3 3c f0 be cf 0b 42 3f 95 97 97 3f
       0.056905553 -0.46921262 0.7579927 1.1843134
0000f0 f4 7f 3f bf 09 4a a2 bf b6 47 2a be b7 51 11 c0
       -0.74804616 -1.2678844 -0.16628918 -2.2706125
000100 c2 fc 0f 3e d7 22 5b bd 4e f4 96 bf 45 22 f7 3e
       0.14061263 -0.053500023 -1.1793306 0.48268333
000110 d0 18 a1 be 17 22 71 bf bf fd 77 be 9f 1f 85 3e
       -0.31464243 -0.9419264 -0.2421789 0.26000687
000120 79 da 31 3f 8e b7 01 bf ba 02 8e bf 6c cf 1d bf
       0.6947399 -0.5067071 -1.1094582 -0.61644626
000130 e2 5a 0a bf 6a 9d d1 3f 59 b4 18 bd 99 f3 3e 3f
       -0.54044926 1.6376164 -0.037281368 0.7459045
000140 36 5d c9 bd 19 1a f5 3d d0 6d 80 3e 8f 19 1f 3e
       -0.09832232 0.11967868 0.2508378 0.15537094
000150 f6 c5 0b 3d 39 e3 0d be a7 40 25 3e 32 65 b7 be
       0.034124337 -0.1385621 0.16137944 -0.35819393
000160 40 6f cf bd 25 0a a4 be 09 58 3d be 20 8d 84 bd
       -0.10128641 -0.3203899 -0.18490614 -0.0647223
000170 61 93 d9 3d 25 8f f0 bd 92 9c b5 bf 98 48 12 3f
       0.106238134 -0.11746053 -1.4188406 0.5714202
000180 00 c2 40 be 75 29 c0 bf fb a2 f5 3f 20 19 a9 be
       -0.18824005 -1.5012652 1.9190363 -0.3302698
000190 e1 f6 f9 3d 24 8b 58 3f 8c e1 e5 bd 80 ca 2e bd
       0.122052915 0.8458731 -0.1122466 -0.042673588
0001a0 96 42 02 bd 53 88 aa 3e fa fb d5 3e 8b de 20 3f
       -0.031801783 0.33307132 0.41793805 0.62839574
0001b0 66 5c ef 3d 20 0c 90 3b 09 fc 41 bf 60 7f 95 3e
       0.116875455 0.0043959767 -0.757752 0.29198742
0001c0 96 a8 d5 3d 29 00 cd 3e 71 5b fd be 7b e1 01 3f
       0.10432546 0.40039185 -0.49483827 0.5073468
0001d0 fa 6c da 3c ee 28 a6 be 9d f6 33 c0 63 87 6e 3f
       0.026663292 -0.32453102 -2.811927 0.93175334
0001e0 f8 57 72 3e bd 6a 63 3d 38 28 86 3d 26 1b 98 bf
       0.2366637 0.055521715 0.0655064 -1.1883285
0001f0 04 1f ca 3e 17 19 55 bc bc e2 30 3f 15 e5 93 3f
       0.39476788 -0.01300647 0.6909597 1.1554285
000200 cb 10 ed 3d 4e 93 08 3f e8 3e 66 bf ec f9 31 bf
       0.11575469 0.5334977 -0.8993974 -0.69521976
000210 0c ca 88 bf c2 f9 92 bf 99 45 45 3f 4f 9f f0 bc
       -1.068666 -1.148247 0.7705932 -0.02937284
000220 37 45 8b bc 47 72 2f be cf f5 15 3e 92 00 1e 3e
       -0.017000778 -0.17133437 0.1464455 0.15429905
000230 e9 b4 fc bc 40 dd 5d 3f 65 a7 e8 3d 43 5c e0 3e
       -0.030847983 0.86665726 0.11360053 0.4382039
000240 3e 7f af be 65 2e 5d 3f f6 f5 0e bd c8 9b 76 bd
       -0.34276766 0.8639892 -0.034902535 -0.06020716
000250 99 9c 98 bd c8 89 05 bf 6b bf ca 3e da 54 0f bd
       -0.07451744 -0.5216336 0.39599165 -0.03499303
000260 66 1a 65 bf d7 24 f2 3e a4 5a b7 3e 0b 4b 21 3f
       -0.89493406 0.47293732 0.3581134 0.6300513
000270 48 6b a3 3e 66 0a 2e 3f a2 03 a1 3e 01 38 15 3f
       0.31917787 0.67984617 0.31448084 0.5828858
000280 6c c1 4c 3d 3e 08 8c be de f9 22 3e a0 ac 01 bf
       0.04998915 -0.27350038 0.1591563 -0.5065403
000290 35 9f 7c bc 1b 28 ef 3e 70 72 b9 3e 4f 0e df 3f
       -0.015418817 0.46710286 0.3622012 1.7426242
0002a0 fa 99 a1 3e 89 f6 14 bf 6e 82 5a c0 83 63 26 bf
       0.31562787 -0.5818868 -3.4142108 -0.6499559
0002b0 b0 ac c7 bf 86 a1 14 3f 22 8f 87 3f d7 76 6c 3c
       -1.5599575 0.58058965 1.0590556 0.0144326305
0002c0 ac 6c c1 3d 53 27 d3 3c 62 39 97 3f a9 3e 8b 3e
       0.09444556 0.025775587 1.1814387 0.27196243
0002d0 a5 a0 33 3f 6a 46 6c bf 49 8d 97 bf 1d ec 2e 3f
       0.70167 -0.92294943 -1.1839992 0.6832903
0002e0 3a b6 ab 3e 0c 38 3b bf 7f ad 2b 3e 3e b3 42 bf
       0.33537465 -0.73132396 0.16765402 -0.7605475
0002f0 ee 3c 3c 3e ea 2b 8e be f8 3a f4 bd 35 b9 7b 3e
       0.18382618 -0.2776788 -0.1192531 0.2458237
000300 5a f6 22 3e bc 5a aa 3e 7b 1d c0 bd 8c bb 45 be
       0.15914288 0.3327235 -0.09380623 -0.19309825
000310 46 f4 28 bf 7b ac 3f be e8 69 5e 3d 0a a9 09 3f
       -0.6599773 -0.1871814 0.05430022 0.5377356
000320 7a fd 6c 3d 93 74 44 3d b7 f2 e4 3f af 3f 7b bf
       0.05785892 0.047962736 1.7886571 -0.9814405
000330 05 57 ec be 93 c9 18 c0 29 e9 86 bf 0f b8 cd be
       -0.4616014 -2.387303 -1.0539905 -0.40179488
000340 c2 b9 f0 bd 99 de 01 be 6f 55 2a be d1 62 ac 3f
       -0.117541805 -0.1268257 -0.16634153 1.3467656
000350 31 45 2f be da 4d 21 be f4 0d a8 bd bf 91 68 bf
       -0.17116238 -0.15752354 -0.08205786 -0.9084739
000360 19 dc ba be b3 29 b9 be 1c c7 3d 3e 57 4d a7 3e
       -0.36496046 -0.36164626 0.18532985 0.32676193
000370 c5 a6 33 bf c0 d3 a1 be 27 29 09 bf c7 9a ed 3d
       -0.70176345 -0.31606865 -0.5357842 0.11601787
000380 68 8d 3a c0 b1 f1 db bf ae ee 66 3f 88 d3 8f bf
       -2.9148808 -1.7183133 0.90207946 -1.1236429
000390 57 14 72 40 45 46 cc 3d 26 66 6d bc 48 39 f5 3e
       3.7824914 0.0997434 -0.014489686 0.47895265
0003a0 57 01 73 be bf 15 6a 3f ba a4 dc 3e dc ac 29 3e
       -0.2373098 0.9143943 0.43094426 0.16569847
0003b0 64 d8 ca bf 89 b7 e9 3e f6 fb 06 be 52 59 10 c0
       -1.5847287 0.4564784 -0.13182053 -2.2554517
0003c0 32 ec a6 3e 54 fa b1 be 28 d5 a1 3e bc 84 88 bd
       0.32602078 -0.34761298 0.31607938 -0.06665942
0003d0 e6 9e f6 be 61 ca 45 be 4d 15 21 3c 43 45 3e 3e
       -0.48168105 -0.19315483 0.009831739 0.18581109
0003e0 de 83 70 bd ce 6d c1 3d d1 a0 17 3e f3 af 1f 3f
       -0.05871951 0.09444772 0.1480744 0.6237785
0003f0 35 ab 87 3d 7e 6e bb 3d f6 35 de 3b 32 11 05 be
       0.06624452 0.09151934 0.006781335 -0.1299484
