QuadrupedalRobots/ETGRL/data/origin_CPG/Gallop_width0.5_3_model_itr2820.npz (npz, 1332 bytes, 3 tensors)

w f8 [3, 20]
0	0x3f943a9204bd1db8	0.019754678286771216
1	0xbfac00e1fdeca84f	-0.054694235083233005
2	0xbfbb8cbc7c8cf096	-0.10761621514115158
3	0xbfb507e53327f7f8	-0.08215172289780515
4	0x3f8e0f3fe8d7a2cb	0.014677523892673424
5	0x3fb6266ad38f11aa	0.0865237013341075
6	0x3f9baf0604ab7c46	0.027034849200273457
7	0xbfc31f0b2fd90b6c	-0.14938487850494242
8	0xbfd3923317d44dd1	-0.30579831435281074
9	0xbfd5898111bd7f85	-0.336517588924828
10	0xbfd0a7a4dd61302a	-0.26023217791658004
11	0xbfc3e0a784d37b90	-0.15529340730332963
12	0xbfb2a52ee89bea9a	-0.07283299616748665
13	0xbf96ca682455986e	-0.02225649568335835
14	0x3f79679446056335	0.006202296441494328
15	0x3f9a2d0b84ac6822	0.02556245801233826
16	0x3fa725d16e30a080	0.04521040411083366
17	0x3fb05bfb6b00a56e	0.06390353548399272
18	0x3fb08faaf6ec6754	0.0646921971168955
19	0x3f9aa044ad141401	0.02600199991595176
20	0x0000000000000000	0.0
21	0x0000000000000000	0.0
22	0x0000000000000000	0.0
23	0x0000000000000000	0.0
24	0x0000000000000000	0.0
25	0x0000000000000000	0.0
26	0x0000000000000000	0.0
27	0x0000000000000000	0.0
28	0x0000000000000000	0.0
29	0x0000000000000000	0.0
30	0x0000000000000000	0.0
31	0x0000000000000000	0.0
32	0x0000000000000000	0.0
33	0x0000000000000000	0.0
34	0x0000000000000000	0.0
35	0x0000000000000000	0.0
36	0x0000000000000000	0.0
37	0x0000000000000000	0.0
38	0x0000000000000000	0.0
39	0x0000000000000000	0.0
40	0xbf80da0c5dc67dce	-0.008228394138142383
41	0xbf9fcaa90ac41baa	-0.03104652527056443
42	0xbfac3cdc3e9957a0	-0.055151827470282244
43	0xbfa9ea781d8551cd	-0.05061698303567006
44	0x3f73ce539932b357	0.004835440212599482
45	0x3fb267efa8a75221	0.07189844005126435
46	0x3fb1f88d63d18fe8	0.0701988571832427
47	0xbf9268c85de664a0	-0.017977839213561553
48	0xbfbd90f942f7593c	-0.11549337277333377
49	0xbfc2a22a23ed375b	-0.14557387117605
50	0xbfbb01c1ffef7e5a	-0.1054955720751364
51	0xbfa2ec91902fdb4b	-0.03696112523169023
52	0x3f9970e147182e47	0.02484466549326061
53	0x3fb00ff3083a007c	0.06274336768001548
54	0x3fb274bdcdd74412	0.0720938327351777
55	0x3fae8e6b01f26eff	0.05968031309859433
56	0x3fa40abad23997f8	0.039144361650684745
57	0x3f9599563caac12a	0.02109274621278804
58	0x3f7f6053c85b6342	0.007660224224047609
59	0xbf7a774660155201	-0.006461405662169018

b f8 [3]
0	0x3c45555555555555	2.3129646346357427e-18
1	0x0000000000000000	0.0
2	0x3fa1111111111111	0.03333333333333333

param f8 [12]
0	0xbfd0fcea25ed94be	-0.26543668464575976
1	0x3fcbc6b1e312139f	0.21700118625099393
2	0x3fbc093c9586e8ed	0.10951594019471474
3	0x3f8e031e2688a800	0.01465438418479792
4	0xbfc1230fc23a7399	-0.13388249381833076
5	0xbfb5f2359787563e	-0.08572707127981347
6	0xbfd58ff281a5b8c8	-0.3369108453833971
7	0xbfd2971614d11368	-0.2904715731895551
8	0xbfc990df04025710	-0.19973361678847157
9	0x3fc979b299b80bfc	0.1990264177876212
10	0xbff40eb92cd3de6d	-1.2535945654944058
11	0xbfd7f038b9189900	-0.37403696132459174
