QuadrupedalRobots/ETGRL/data/sigma0.5_exp0_dynamic_param9027.npy (npy, 512 bytes, 1 tensors)

array f8 [48]
-0.34124668538086966 0.009155568639824991 -0.24809953081691752 -0.11436788987391197 1.8468400841957344 -0.7056465196439264 2.0323551545995464 1.0026281351723927
1.7571090875343296 -2.2970703697985644 0.9513101833029379 -1.0030110712175218 -0.32955946046932544 3.1391563678999934 -0.7555929904699923 2.7909386121838993
-0.3547031108206079 1.4256604376880417 -3.195454633746209 1.8009649071295255 3.6881457711058103 2.8616035411897784 4.1598267689499275 1.817912625947634
0.6388240288307592 2.5423370020745306 0.41166889760528746 -0.2826533135393471 -0.005095550776730268 2.101380385912721 1.483061248440393 0.24449033697569666
5.405444177135653 4.542454961187039 0.833340968131663 0.9310881866857406 4.876483875147647 3.1384343453886023 0.22732658837328712 3.041285268364024
2.069309145351612 1.2643973808259488 1.5046554767630393 4.258486277234279 5.847230952364664 0.20676109771163861 0.04973765790499537 -0.059632405010633965
00000000: 3612 6556 fcd6 d5bf 6a1c 139f 27c0 823f
00000010: 457c 81b5 b9c1 cfbf 3e92 b8ca 3647 bdbf
00000020: 4500 2930 a88c fd3f 3505 8d02 a894 e6bf
00000030: 88e5 566b 4342 0040 9bd6 a9cc c30a f03f
00000040: f76d 276b 1e1d fc3f e729 176e 6660 02c0
00000050: 8b69 b40d 2271 ee3f a17b 4656 550c f0bf
00000060: ef66 3390 8017 d5bf f148 8903 fe1c 0940
00000070: 80f9 e459 d12d e8bf adc9 839f d753 0640
00000080: f6e4 30ad 74b3 d6bf 9323 b151 81cf f63f
00000090: 4055 de84 4a90 09c0 ffd6 1594 c0d0 fc3f
000000a0: c33d ee91 5281 0d40 1d39 bc65 90e4 0640
000000b0: 41a9 e6a0 a9a3 1040 9ce3 b68c 2b16 fd3f
000000c0: 2c44 f716 3f71 e43f fc90 3ac8 b456 0440
000000d0: 6eaf ff80 c858 da3f 5e7b 70ec fd16 d2bf
000000e0: e001 0f7f 12df 74bf a49b 0f85 a0cf 0040
000000f0: 4143 806e 9eba f73f 54d3 bf98 754b cf3f
00000100: e49a 24c2 2c9f 1540 b667 3750 792b 1240
00000110: ec5b 91ad baaa ea3f f83a f073 79cb ed3f
00000120: 06ec 2cfd 8481 1340 9eb2 5077 831b 0940
00000130: f089 49a3 0919 cd3f c770 eb5e 8d54 0840
00000140: 84ca 04f4 f18d 0040 66ba 7cbf f83a f43f
00000150: d81c 079f 1113 f83f 7bbe 6ca0 b008 1140
00000160: bb42 c282 9063 1740 93d6 60cc 2577 ca3f
00000170: 4bc6 29dc 3677 a93f 34e1 9a7a 2388 aebf
