QuadrupedalRobots/ETGRL/data/origin_ETG/Cave0.18_model_itr10.npz (npz, 1332 bytes, 3 tensors)

w f8 [3, 20]
00000000: 3d61 9d51 2481 8bbf edec 91dd 4004 97bf
00000010: a00d 2be4 68ce 92bf ef14 e729 f7cd 1e3f
00000020: 5a76 ce6c 8885 923f 86e7 6427 e067 953f
00000030: c152 a15b 4c08 833f c1d8 c102 9a84 76bf
00000040: 040c b031 259c 8dbf 21ba 11b5 039b 90bf
00000050: 83d0 b620 1ba5 8dbf eca4 3171 67cc 8abf
00000060: be1e 1386 66e8 8abf 6847 b661 08fe 8abf
00000070: 33c6 e373 6f2e 87bf 8ee8 6a45 6380 7dbf
00000080: ea63 a682 172b 63bf c6a0 e223 79fd 3a3f
00000090: 6e8f b469 30ba 64bf 7fcc 55ef 931d 89bf
000000a0: 0000 0000 0000 0000 0000 0000 0000 0000
000000b0: 0000 0000 0000 0000 0000 0000 0000 0000
000000c0: 0000 0000 0000 0000 0000 0000 0000 0000
000000d0: 0000 0000 0000 0000 0000 0000 0000 0000
000000e0: 0000 0000 0000 0000 0000 0000 0000 0000
000000f0: 0000 0000 0000 0000 0000 0000 0000 0000
00000100: 0000 0000 0000 0000 0000 0000 0000 0000
00000110: 0000 0000 0000 0000 0000 0000 0000 0000
00000120: 0000 0000 0000 0000 0000 0000 0000 0000
00000130: 0000 0000 0000 0000 0000 0000 0000 0000
00000140: 293c 3822 e329 33bf 70ed 0005 ae78 7fbf
00000150: 01a0 ec08 6309 39bf 3784 f04e 3538 943f
00000160: 4974 ecd6 59c1 a03f b5de da6a 7763 993f
00000170: 4869 f550 cb6c 743f e5fc f6b4 d2c8 83bf
00000180: ad03 0c32 c0a5 8abf 2eb9 527f 88f4 82bf
00000190: 8537 499e fbc3 6dbf a375 31cf 2038 593f
000001a0: bdc4 d07d c572 773f e7d5 76bb 159a 813f
000001b0: dfcb e870 5799 843f a276 a5ec 105e 863f
000001c0: 8beb de5d 9b0b 893f 375c 9b03 c8e0 8a3f
000001d0: 5b3e e015 0272 843f e4d8 23ab 19ba 493f
-0.013429912319836585 -0.022477162860451583 -0.018365515638618768 0.00011751004283329693 0.01808751262762196 0.020904066471508574 0.009293171449976769 -0.0054975524945943275
-0.014457979754302748 -0.01621633331927275 -0.014475070892196356 -0.01308518232527197 -0.01313858124412037 -0.01317984150117342 -0.011319037174391066 -0.007202518251398738
-0.002339883726744753 0.000411836695898515 -0.0025301881375003254 -0.012263446561268985 0.0 0.0 0.0 0.0
0.0 0.0 0.0 0.0 0.0 0.0 0.0 0.0
0.0 0.0 0.0 0.0 0.0 0.0 0.0 0.0
-0.00029241366630200716 -0.00768344856629298 -0.0003820292267158188 0.019745667403302938 0.032725150571629565 0.024793496987256265 0.004986566738205696 -0.009660383365256606
-0.01301145699244607 -0.009255472550958457 -0.003633490983964318 0.0015392609027665503 0.005724688960115629 0.008594674857571994 0.01005810082742714 0.010921604368088925
0.012229169656952773 0.013124048814843288 0.009983078281975801 0.0007851243338155259

b f8 [3]
00000000: 5555 5555 5555 453c 0000 0000 0000 0000
00000010: b81e 85eb 51b8 8e3f
2.3129646346357427e-18 0.0 0.015

param f8 [12]
00000000: c062 4ee3 7cf2 b0bf 9098 92d9 1207 b23f
00000010: 02f1 0fa3 2095 94bf 235e 98c9 bfc6 b53f
00000020: ad4c 4993 35e7 a33f 705c 1b47 e79a 96bf
00000030: bd1e 697a 5b94 a63f 7d97 69ba 446d b73f
00000040: 607f 85d3 9399 bebf e074 88ce 2eb6 4ebf
00000050: 7532 77e9 c7eb b0bf f60f 1973 e36d 993f
-0.06620007085292468 0.07042043506462137 -0.02010012622120972 0.08506392165906411 0.03887336180619037 -0.022075284686107144 0.04410062665243462 0.09151105452619208
-0.11953090585802562 -0.0009372452305488575 -0.0660977311119469 0.02483325376512365
